met_classifier/model_22.model (torch_old, 982063 bytes, 49 tensors)

conv1.conv.weight f4 [32, 6, 3, 3]
0.026834654 0.063446976 -0.0063826186 -0.07841418 -0.12506981 -0.015185271 -0.099158734 0.08367545
-0.12073186 0.06544219 0.14542933 0.01387946 0.07924731 0.11438881 0.11107457 -0.109939374
-0.11147047 0.050013553 -0.20180508 -0.17485471 -0.1676621 -0.18341346 -0.19074364 -0.175783
-0.164801 -0.102551796 -0.17800258 0.0918246 -0.030666068 0.10286769 0.045947086 -0.06832503
-0.061421428 -0.031920455 -0.13498215 -0.00019511703 0.1596513 0.13570073 0.0401468 -0.014298922
-0.02602072 0.07866929 0.11263283 -0.08433134 0.050478216 0.053780504 -0.007809159 0.12893277
-0.032905325 0.12868145 0.056851037 -0.033572588 0.0047050924 -0.08358243 0.03219293 -0.0780001
-0.1465472 0.006314989 -0.11591419 -0.15401793 -0.09679847 -0.1443462 -0.07278072 -0.11063047
-0.136512 -0.046700522 -0.12670659 -0.1265494 -0.109897226 0.022493405 -0.0021142291 -0.0014840402
0.0671009 0.035124037 -0.0075507956 0.00062576594 0.042939983 -0.085152715 -0.07742124 0.009730008
-0.11322997 -0.11094215 0.13592242 0.05348315 0.102894284 0.015649844 0.16866294 -0.029958451
0.15539396 -0.054382745 -0.108291 -0.12290316 0.020733763 -0.103489555 -0.045828637 0.010052333
-0.01903599 -0.051668074 -0.105249085 -0.01475173 -0.028981786 0.022598743 0.10642474 0.14792405
-0.07282946 0.014607653 0.018396804 -0.050030943 0.068778485 0.060071014 0.15177386 -0.030585472
-0.10814056 0.027917523 -0.014555945 0.08042015 -0.13772474 -0.01993812 -0.12196233 0.13064778
-0.051709823 0.12739956 -0.060456645 -0.018090032 0.14572637 -0.014775473 -0.12404186 -0.14548698
0.035937674 -0.14725305 0.04923934 0.090224415 -0.032395143 -0.011903862 0.041849643 0.014403401
-0.045338064 0.011315102 -0.08313988 -0.0045003444 -0.13590902 -0.21960984 -0.072977744 -0.09191168
0.011941802 -0.013808425 0.1643684 -0.13280708 -0.0721402 0.012752827 -0.020221876 0.04381386
0.054236326 -0.04478317 -0.07345706 -0.14350113 -0.1448477 0.0007797289 0.13206829 0.087023884
0.14591545 0.008794097 -0.06436597 0.011590024 -0.035514582 0.14523363 -0.06946707 -0.087981544
0.04004556 0.13157846 0.022973934 0.07814151 0.109908536 0.021945355 0.067626506 -0.046899702
-0.05824845 -0.10289331 -0.11972499 -0.055342924 0.016635422 -0.13412124 0.03457607 0.028188707
-0.08459003 0.02502745 -0.040122427 0.13377719 0.095127635 0.12654237 -0.036105573 0.18152443
-0.12627175 0.12333606 -0.11035418 0.052734517 -0.13159777 0.043411445 -0.026620265 -0.027428562
-0.038485028 -0.0075469706 0.041731942 -0.07053819 0.15803982 -0.06214687 -0.21154818 -0.08107708
0.1613766 0.10706701 0.1521662 0.0809118 0.0039526033 -0.10500123 -0.11675632 -0.018313093
-0.10960172 -0.1037415 0.11515617 -0.109790124 0.13974795 0.066047885 0.03246641 0.057780486
-0.030039273 -0.00925011 -0.0017023538 -0.13220842 -0.01881303 0.10628564 0.009833333 -0.01138847
-0.08643036 0.031104185 -0.07281138 -0.015961286 -0.13047265 -0.11645861 0.026803292 0.07752937
-0.12225261 -0.016013535 -0.05690522 0.019803064 0.108625434 -0.052549936 0.07334561 0.03962577
0.015166788 0.025209256 0.09294957 0.13111067 -0.08599577 -0.104694694 0.14010315 0.054848604
00000000: 59d4 db3c 7df0 813d 4925 d1bb 9d97 a0bd
00000010: 4d12 00be a5cb 78bc bc13 cbbd 095e ab3d
00000020: 4442 f7bd 8e06 863d 6deb 143e ad66 633c
00000030: 6a4c a23d ae44 ea3d 107b e33d e527 e1bd
00000040: a14a e4bd 03db 4c3d fea5 4ebe 1d0d 33be
00000050: 9daf 2bbe bdd0 3bbe 4d52 43be 7500 34be
00000060: 98c1 28be ad06 d2bd 4f46 36be 890e bc3d
00000070: 6837 fbbc 4cac d23d 0333 3c3d feed 8bbd
00000080: 0995 7bbd 06bf 02bd c338 0abe 5498 4cb9
00000090: a17b 233e 22f5 0a3e f970 243d 0746 6abc
000000a0: 6829 d5bc 5d1d a13d 0bac e63d e9b5 acbd
000000b0: 3fc2 4e3d f248 5c3d f9e3 ffbb f406 043e
000000c0: bcc7 06bd 12c5 033e a2dc 683d 6983 09bd
000000d0: 2d2d 9a3b 442d abbd bcdc 033d 84be 9fbd
000000e0: 7810 16be f8ed ce3b 6b64 edbd e0b6 1dbe
000000f0: 473e c6bd 7ecf 13be 0f0e 95bd 3a92 e2bd
00000100: cdc9 0bbe 0c49 3fbd 5fbf 01be 2a96 01be
00000110: cc11 e1bd 1744 b83c e18e 0abb 2084 c2ba
00000120: 326c 893d 39de 0f3d aa6c f7bb 710a 243a
00000130: d6e1 2f3d 8c64 aebd 078f 9ebd 9d6a 1f3c
00000140: 1de5 e7bd a335 e3bd 3f2f 0b3e 2611 5b3d
00000150: 3dba d23d 1a34 803c fab5 2c3e 6d6b f5bc
00000160: 981f 1f3e 71c0 5ebd acc7 ddbd a7b4 fbbd
00000170: dad9 a93c 55f2 d3bd cfb6 3bbd 8ab2 243c
00000180: 5df1 9bbc e7a1 53bd d58c d7bd 3db1 71bc
00000190: 366b edbc 0021 b93c 37f5 d93d 6779 173e
000001a0: 9d27 95bd f054 6f3c e5b4 963c 3fed 4cbd
000001b0: bcdb 8c3d 060d 763d 9b6a 1b3e 628e fabc
000001c0: cc78 ddbd 4ab3 e43c 0f7c 6ebc 52b3 a43d
000001d0: b707 0dbe 4555 a3bc 63c7 f9bd 88c8 053e
000001e0: aecd 53bd 0875 023e 63a1 77bd 8c31 94bc
000001f0: 4b39 153e d314 72bc a909 febd 8afa 14be
00000200: 6233 133d 81c9 16be 31af 493d 94c7 b83d
00000210: c5b0 04bd 6a08 43bc 886a 2b3d 3efc 6b3c
00000220: 68b4 39bd fa62 393c 3e45 aabd a077 93bb
00000230: bc2b 0bbe 67e1 60be 5b75 95bd 313c bcbd
00000240: 8ca7 433c bb3c 62bc 3150 283e 94fe 07be
00000250: 3ebe 93bd 3cf1 503c 59a8 a5bc 2976 333d
00000260: e926 5e3d 8f6e 37bd a870 96bd f6f1 12be
00000270: f552 14be b966 4c3a e93c 073e 9439 b23d
00000280: dc6a 153e 1e15 103c 4ed2 83bd 16e4 3d3c
00000290: bd77 11bd 20b8 143e c044 8ebd ab2f b4bd
000002a0: d006 243d 81bc 063e d533 bc3c a808 a03d
000002b0: ba17 e13d bfc6 b33c c47f 8a3d e719 40bd
000002c0: ed95 6ebd bab9 d2bd 6032 f5bd 43af 62bd
000002d0: 0247 883c 1457 09be a39f 0d3d 01ec e63c
000002e0: 8a3d adbd 5e06 cd3c 6a57 24bd e3fc 083e
000002f0: 47d2 c23d 5394 013e 70e3 13bd 8ae1 393e
00000300: 624d 01be 9e97 fc3d 5f01 e2bd 2600 583d
00000310: 91c1 06be 33d0 313d be12 dabc ddb1 e0bc
00000320: 7aa2 1dbd 944c f7bb 1def 2a3d 5476 90bd
00000330: 31d5 213e b78d 7ebd 16a0 58be bd0b a6bd
00000340: e83f 253e f345 db3d 75d1 1b3e 16b5 a53d
00000350: d784 813b e30a d7bd f01d efbd 5705 96bc
00000360: de76 e0bd 6c76 d4bd 00d7 eb3d a5d9 e0bd
00000370: 161a 0f3e 1d44 873d 80fb 043d 3bab 6c3d
00000380: ec14 f6bc c68d 17bc 8421 dfba a561 07be
00000390: c91d 9abc 49ac d93d fd1b 213c b596 3abc
000003a0: 6702 b1bd 34ce fe3c 221e 95bd 3ec1 82bc
000003b0: 9f9a 05be da81 eebd 9492 db3c b8c7 9e3d
000003c0: 945f fabd d12e 83bc 7315 69bd 093a a23c
000003d0: 0377 de3d 9a3e 57bd 3936 963d a24e 223d
000003e0: 1f7e 783c a483 ce3c 585c be3d e041 063e
000003f0: 8d1e b0bd 2c6a d6bd 3377 0f3e eea8 603d

conv1.conv.bias f4 [32]
2.2986465e-06 6.7890023e-06 5.4679203e-06 -9.259524e-06 -7.86327e-06 1.5422966e-05 -5.38682e-07 -2.113184e-06
-5.915845e-07 1.8643544e-06 4.841831e-07 1.9833491e-05 -1.1377162e-05 3.3947777e-06 -8.124346e-07 -4.648266e-06
-3.4330383e-06 -1.7038466e-06 7.953058e-06 -9.914501e-07 -6.572789e-06 1.7457127e-07 1.81441e-05 -9.160976e-25
6.471598e-05 4.7281224e-05 -6.649847e-07 -3.1064639e-07 -4.4708477e-06 -9.562094e-06 1.1059648e-06 -3.0090418e-06
00000000: 7242 1a36 16cd e336 1479 b736 5a59 1bb7
00000010: 7dec 03b7 9160 8137 f299 10b5 3ad0 0db6
00000020: 61cd 1eb5 bb3a fa35 cff8 0135 1960 a637
00000030: 8ae0 3eb7 d6d1 6336 1516 5ab5 4df8 9bb6
00000040: 2663 66b6 b9af e4b5 206e 0537 f711 85b5
00000050: d48b dcb6 c971 3b34 2834 9837 5dc2 8d97
00000060: 21b8 8738 d44f 4638 6781 32b5 eac6 a6b4
00000070: 4a04 96b6 e26c 20b7 a970 9435 f2ee 49b6

conv1.bn.weight f4 [32]
0.09805843 0.6124553 0.72412515 0.5258797 0.8547049 0.92100275 0.14677003 0.59230375
0.3121879 0.70432454 0.072911166 0.6246418 0.820943 0.09302799 0.093450956 0.43090078
0.5296097 0.6346418 0.44344574 0.14036058 0.14679211 0.24515039 0.5981654 -0.00020597351
0.9922213 0.72955483 0.12255069 0.46246105 0.33416387 0.46796912 0.32419288 0.1417013
00000000: dcd2 c83d dfc9 1c3f 4460 393f 0da0 063f
00000010: f1cd 5a3f d6c6 6b3f e24a 163e 38a1 173f
00000020: 18d7 9f3e 9d4e 343f 7352 953d 86e8 1f3f
00000030: 5229 523f 7585 be3d 3763 bf3d 079f dc3e
00000040: 8094 073f e377 223f 520b e33e afba 0f3e
00000050: ac50 163e b408 7b3e 5e21 193f 98fa 57b9
00000060: 3702 7e3f 1bc4 3a3f dbfb fa3d b2c7 ec3e
00000070: 8717 ab3e a699 ef3e 9cfc a53e 251a 113e

conv1.bn.bias f4 [32]
-0.08169008 -0.014587385 -0.05210908 -0.11205905 -0.10279002 -0.04479706 -0.05402056 -0.008647677
-0.04037943 -0.03011568 -0.040279325 -0.06582448 -0.06906129 -0.021748476 -0.025738316 -0.035661258
-0.10608494 0.035338912 -0.040151294 -0.053687472 0.030266758 -0.06374612 -0.019510293 -0.01044326
0.032870922 -0.053148672 -0.042853236 -0.071804345 0.053676866 0.03349981 -0.08858196 -0.07922373
00000000: 214d a7bd edff 6ebc 5570 55bd 377f e5bd
00000010: 9383 d2bd 1f7d 37bd aa44 5dbd fcae 0dbc
00000020: e764 25bd 29b5 f6bc effb 24bd fcce 86bd
00000030: 0170 8dbd dc29 b2bc 29d9 d2bc 8a11 12bd
00000040: 1043 d9bd 89bf 103d af75 24bd 65e7 5bbd
00000050: fef1 f73c 538d 82bd 0dd4 9fbc 351a 2bbc
00000060: a9a3 063d 6cb2 59bd e086 2fbd 280e 93bd
00000070: 46dc 5b3d 1937 093d 756a b5bd 0d40 a2bd

conv1.bn.running_mean f4 [32]
-246.16394 -271.3059 -137.36873 30.137867 92.80826 -145.23193 -204.15538 91.84191
-221.56018 64.99701 -244.23853 116.805115 -27.03388 -91.58848 -191.02217 143.30681
169.67049 170.021 36.61689 113.331116 29.984608 -158.0595 -12.094686 185.85445
-52.38444 -29.08578 -227.0104 87.25348 30.694973 -50.639675 -222.07423 55.432053
00000000: f829 76c3 28a7 87c3 655e 09c3 5a1a f141
00000010: d49d b942 603b 11c3 c727 4cc3 0faf b742
00000020: 688f 5dc3 78fe 8142 103d 74c3 389c e942
00000030: 6345 d8c1 4d2d b7c2 ad05 3fc3 8b4e 0f43
00000040: a5ab 2943 6005 2a43 b277 1242 88a9 e242
00000050: 7ae0 ef41 3b0f 1ec3 d583 41c1 bdda 3943
00000060: ab89 51c2 adaf e8c1 aa02 63c3 c881 ae42
00000070: 4e8f f541 078f 4ac2 0113 5ec3 6cba 5d42

conv1.bn.running_var f4 [32]
13861.488 8062.767 2722.282 511.8148 2361.7356 2696.488 5592.108 1295.6123
5929.2603 3520.89 7809.3774 2099.9048 3605.817 1497.869 4389.056 2203.5215
3441.1353 2935.443 769.4086 4109.891 2115.2083 4816.4185 1816.2991 3487.1484
1119.0754 3326.4983 7190.1094 1064.4221 1048.2274 1085.6339 6131.1724 4015.2522
00000000: f495 5846 23f6 fb45 8324 2a45 4be8 ff43
00000010: c59b 1345 cf87 2845 ddc0 ae45 98f3 a144
00000020: 154a b945 3d0e 5c45 050b f445 7a3e 0345
00000030: 125d 6145 cf3b bb44 7328 8945 58b8 0945
00000040: 2a12 5745 1777 3745 275a 4044 216f 8045
00000050: 5533 0445 5983 9645 9209 e344 60f2 5945
00000060: 6ae2 8b44 f9e7 4f45 e0b0 e045 820d 8544
00000070: 4707 8344 49b4 8744 6199 bf45 09f4 7a45

conv2.conv.weight f4 [64, 32, 3, 3]
0.007747337 0.015065146 0.02085067 0.009148532 0.07095515 0.019503571 -0.0058356663 0.04661284
0.08708387 0.008413985 -0.034015846 0.05115182 0.0451105 0.0060254927 0.03183058 0.031672094
0.029330298 0.09809159 -0.00975257 -0.010425328 -0.037538327 -0.012905873 0.04976598 0.050975367
0.032595642 -0.04330319 0.009239659 -0.10487835 -0.07785129 -0.05924 -0.03022107 0.072218806
-0.06304643 0.06910828 -0.045374203 0.017197393 0.033873383 0.027012512 0.01705543 0.029413044
0.046181016 0.070114076 -0.07561017 0.062476553 0.005591339 -0.0902863 -0.0690137 -0.09633583
0.037416145 -0.058111873 0.015843812 0.021760847 -0.06014615 -0.046660174 -0.10521749 0.0050416766
-0.009563276 -0.031633567 -0.012918109 -0.03730488 -0.06386606 -0.083609655 -0.04685216 -0.025634581
-0.025447426 -0.071671195 0.022836054 0.013522417 0.030758519 -0.032288887 0.08209948 0.018108658
-0.02448138 0.023457348 -0.022618938 0.06499468 0.035154458 0.011741712 0.077116214 0.06757198
0.046570167 -0.057403233 0.059267066 -4.664058e-05 0.031328563 0.07927171 0.03699869 -0.010754649
-0.017217385 0.023756362 -0.10809454 -0.09315894 0.0078062937 -0.04060512 -0.09597677 -0.07369736
-0.08495672 -0.05616774 -0.038536508 0.011075884 -0.00076556474 0.008863754 -0.048606545 0.053232748
-0.035641424 0.02211414 0.05813952 -0.011462385 0.0067575444 -0.046566304 0.0055358782 0.014423465
-0.025527636 -0.07361918 -0.007085941 -0.028947432 -0.0054254136 0.033057977 -0.017122466 -0.019063177
0.038235947 -0.020328699 -0.046187486 -0.021656008 -0.02579331 -0.06705557 0.06539487 0.018368341
0.05692108 0.009048931 -0.062477518 -0.022332346 -0.03169317 -0.012896821 -0.0026695183 -0.004060437
0.008972536 -0.0027965785 0.07789294 0.10105419 0.0914865 0.030520564 -0.06314284 0.029749703
0.037023704 0.06467105 -0.0243515 0.034115776 -0.059078056 0.00968725 0.006267773 -0.048729762
-0.0015229019 0.12533768 0.10039043 0.028023459 0.003485179 -0.004359139 -0.0784898 0.049286615
-0.01494432 -0.013346503 0.076877855 0.10197209 -0.09045904 0.047659554 0.075104624 -0.071697555
0.035392754 0.060497254 -0.09338697 0.056325547 -0.007251378 0.041180737 0.041804075 0.10096993
-0.031233778 0.007018468 0.042178117 0.01949056 0.015685713 0.04339296 -0.0241772 0.04620129
0.071039505 0.08153487 0.09096191 0.047184948 0.06248863 -0.055487923 -0.06103762 0.054166522
-0.04003424 0.041180935 0.009894815 -0.07166912 -0.041181136 -0.04325137 0.038583633 0.006821341
0.058526363 0.05180866 -0.016250942 -0.026959231 -0.03752871 -0.056462675 -0.009089491 0.015851272
0.00094257895 -0.022466235 -0.006981505 0.00953187 0.02123769 0.00065373845 0.021049729 0.021933919
0.06160165 0.10798312 0.034141656 0.06689308 0.07639781 0.023418952 0.02974705 0.13445567
0.008302969 0.08360989 0.10807356 0.043302823 0.0740801 0.034244414 0.06141948 -0.0069029327
0.031911843 -0.032801516 -0.0019921006 0.07580215 0.07118821 -0.004935265 0.08800399 0.0016833876
-0.061173823 -0.01823333 -0.042403426 -0.043507084 -0.0006941526 -0.051439274 -0.047865033 0.027048582
-0.09695739 -0.027364956 -0.040076803 -0.11454926 0.0046917116 -0.012006975 0.005797813 0.09571224
00000000: 60dd fd3b cdd3 763c 06cf aa3c b9e3 153c
00000010: ef50 913d f4c5 9f3c 1e39 bfbb 1bed 3e3d
00000020: 0759 b23d d0da 093c 3354 0bbd 9284 513d
00000030: cac5 383d 7f71 c53b c860 023d 99ba 013d
00000040: 1846 f03c 3ee4 c83d 3ec9 1fbc ffce 2abc
00000050: cac1 19bd 2873 53bc 6ad7 4b3d 8ccb 503d
00000060: 0283 053d b05e 31bd f061 173c 76ca d6bd
00000070: 7f70 9fbd a4a5 72bd 2d92 f7bc 74e7 933d
00000080: 7d1e 81bd a488 8d3d 4dda 39bd 8ce1 8c3c
00000090: d1be 0a3d 5849 dd3c d4b7 8b3c a0f3 f03c
000000a0: 4e28 3d3d f897 8f3d 81d9 9abd 6ae7 7f3d
000000b0: 8d37 b73b 06e8 b8bd 0e57 8dbd b84b c5bd
000000c0: ac41 193d b706 6ebd e2ca 813c ce43 b23c
000000d0: cf5b 76bd bd1e 3fbd 447c d7bd a634 a53b
000000e0: 49af 1cbc 3392 01bd 7aa6 53bc 00cd 18bd
000000f0: 35cc 82bd 8a3b abbd 0de8 3fbd 9dff d1bc
00000100: 1f77 d0bc 59c8 92bd ad12 bb3c 218d 5d3c
00000110: 4af9 fb3c 5a41 04bd c623 a83d 9c58 943c
00000120: 2d8d c8bc a029 c03c 5a4b b9bc ee1b 853d
00000130: 1ffe 0f3d 4f60 403c 1bef 9d3d 2e63 8a3d
00000140: 5cc0 3e3d a71f 6bbd 06c2 723d f19f 43b8
00000150: 6152 003d 3559 a23d f08b 173d 4434 30bc
00000160: 790b 8dbc b49c c23c ac60 ddbd 1dca bebd
00000170: f0cb ff3b 8e51 26bd 788f c4bd a4ee 96bd
00000180: cafd adbd 2510 66bd 75d8 1dbd a077 353c
00000190: 2eb0 48ba 4739 113c a817 47bd 950a 5a3d
000001a0: befc 11bd b728 b53c b523 6e3d bacc 3bbc
000001b0: 646e dd3b 4fbc 3ebd 5066 b53b 6650 6c3c
000001c0: 551f d1bc a7c5 96bd 2e31 e8bb 2a23 edbc
000001d0: abc7 b1bb cd67 073d 6a44 8cbc 612a 9cbc
000001e0: 4c9d 1c3d 5f88 a6bc 172f 3dbd f167 b1bc
000001f0: 7e4c d3bc 6e54 89bd bfed 853d 3479 963c
00000200: 1426 693d f841 143c 6de8 7fbd 53f2 b6bc
00000210: b3d0 01bd 304d 53bc 16f3 2ebb 6a0d 85bb
00000220: 8b01 133c cd46 37bb 5586 9f3d 80f5 ce3d
00000230: 465d bb3d 4306 fa3c 0951 81bd a6b5 f33c
00000240: 2ba6 173d 4172 843d cc7c c7bc fcbc 0b3d
00000250: d5fb 71bd 45b7 1e3c e461 cd3b dc98 47bd
00000260: 1c9c c7ba 8558 003e 7f99 cd3d 7491 e53c
00000270: 9a67 643b 1cd7 8ebb 43bf a0bd c3e0 493d
00000280: 05d9 74bc 4aab 5abc 2372 9d3d bed6 d03d
00000290: 9742 b9bd aa36 433d 74d0 993d 2bd6 92bd
000002a0: fef7 103d f8cb 773d ab41 bfbd 9eb5 663d
000002b0: f89c edbb 22ad 283d c03a 2b3d 53c9 ce3d
000002c0: fbdd ffbc 2dfb e53b f6c2 2c3d abaa 9f3c
000002d0: 537f 803c d1bc 313d 430f c6bc 903d 3d3d
000002e0: 297d 913d c1fb a63d 3d4a ba3d 0145 413d
000002f0: 14f4 7f3d 4e47 63bd 9502 7abd b7dd 5d3d
00000300: f1fa 23bd 57ad 283d dd1d 223c 42c7 92bd
00000310: 8dad 28bd 5928 31bd df09 1e3d 8e85 df3b
00000320: 57b9 6f3d 5135 543d b220 85bc 9bd9 dcbc
00000330: b4b7 19bd 6845 67bd 17ec 14bc 87da 813c
00000340: 6717 773a 1c0b b8bc 1cc5 e4bb 8f2b 1c3c
00000350: aafa ad3c a55f 2b3a 7b70 ac3c c3ae b33c
00000360: 0352 7c3d 4126 dd3d 1fd8 0b3d 3dff 883d
00000370: 7476 9c3d 1ad9 bf3c 16b0 f33c bfae 093e
00000380: 2d09 083c a93b ab3d ac55 dd3d 4d5e 313d
00000390: 4fb7 973d df43 0c3d fe92 7b3d ff31 e2bb
000003a0: feb5 023d e25a 06bd e78d 02bb 283e 9b3d
000003b0: 20cb 913d 01b8 a1bb 703b b43d 1da5 dc3a
000003c0: 6791 7abd 115e 95bc 37af 2dbd 7c34 32bd
000003d0: cbf7 35ba fdb1 52bd 200e 44bd fd94 dd3c
000003e0: 9991 c6bd 792c e0bc 9327 24bd cd98 eabd
000003f0: eebc 993b e7b8 44bc 95fb bd3b c704 c43d

conv2.conv.bias f4 [64]
-2.8804393e-06 0.00019378147 5.573336e-05 -0.00044864847 0.00021343016 0.00020005269 -4.5166826e-06 -0.00012800613
9.582903e-05 -7.5858e-05 0.00025493733 -3.7687692e-05 -0.00026838266 -4.623932e-05 8.0389043e-07 -0.0027810773
-0.00023448629 0.0005235375 -0.00044779966 6.421349e-05 2.7062077e-05 8.652447e-05 0.00011868226 -9.962864e-05
0.00041058325 -9.165426e-05 -0.00028538992 0.00063593074 -6.150334e-05 -0.001530803 0.0002531751 8.8377215e-05
4.6015924e-05 0.0003228055 0.00074603 0.00020316802 0.00057269784 8.266346e-05 -0.0012859583 1.7151525e-31
0.00012226783 -0.0007615961 -1.6891474e-05 -0.00050057133 0.00018506365 0.00022696474 0.00038579304 -7.1073344e-05
0.0002819945 -7.219283e-05 1.7632297e-05 -3.0156463e-05 1.7986406e-05 0.00033503727 -4.925676e-05 0.00020157406
-0.00018652572 2.267604e-05 3.71128e-05 0.00026728818 -0.0015547652 -0.0007109481 -0.00010750667 0.00022886215
00000000: 924d 41b6 d131 4b39 3dc3 6938 9438 ebb9
00000010: 39cc 5f39 3cc5 5139 028e 97b6 6239 06b9
00000020: d2f7 c838 f415 9fb8 1ca9 8539 da12 1eb8
00000030: b6b5 8cb9 18f1 41b8 eeca 5735 bc42 36bb
00000040: 6fe0 75b9 023e 093a a7c6 eab9 5baa 8638
00000050: 5e03 e337 7974 b538 0ee5 f838 b8ef d0b8
00000060: 8d43 d739 8236 c0b8 63a0 95b9 97b4 263a
00000070: 5bfb 80b8 3aa5 c8ba 96bc 8439 2857 b938
00000080: 3901 4138 393e a939 3a91 433a 8009 5539
00000090: 1a21 163a 9b5b ad38 9a8d a8ba b8a3 5e0c
000000a0: 0535 0039 d9a5 47ba 2ab2 8db7 c638 03ba
000000b0: a50d 4239 62fd 6d39 4444 ca39 360d 95b8
000000c0: a9d8 9339 3b66 97b8 12e9 9337 83f8 fcb7
000000d0: 83e1 9637 f1a7 af39 0b99 4eb8 a05d 5339
000000e0: 1e96 43b9 6d38 be37 91a9 1b38 d022 8c39
000000f0: 43c9 cbba eb5e 3aba 3475 e1b8 b7fa 6f39

conv2.bn.weight f4 [64]
0.110743776 0.47991222 0.15537272 0.39670396 0.28020534 0.49639285 0.053354207 0.7687338
0.21962121 0.17290124 0.74979043 0.17525926 0.29126284 0.115399025 0.1705224 0.55496407
0.57540977 0.25079605 0.48456722 0.49004102 0.11640166 0.61899936 0.66839045 0.20545968
0.3442897 0.37304622 0.498157 0.9033685 0.66810495 0.4101027 0.5600371 0.36248457
0.19204272 1.0124184 0.36264867 0.3039821 0.8076536 0.28893068 0.68237674 0.0029225238
0.11181584 0.6535461 0.97231895 0.32552555 0.74073595 0.58171797 0.6352298 0.37513793
0.7507127 0.5463264 0.37745795 0.30798814 0.22229409 0.7214501 0.3035136 0.6878571
0.90440345 0.956245 0.37175086 0.66802615 0.62990755 0.8148594 0.25426367 0.8135594
00000000: a2cd e23d 0eb7 f53e 071a 1f3e c81c cb3e
00000010: 1377 8f3e 3427 fe3e f189 5a3d bdcb 443f
00000020: 62e4 603e 060d 313e 44f2 3f3f 2a77 333e
00000030: 6720 953e 5356 ec3d 6d9d 2e3e 2012 0e3f
00000040: 0e4e 133f 5768 803e 3219 f83e a8e6 fa3e
00000050: fe63 ee3d be76 1e3f a31b 2b3f 0664 523e
00000060: bd46 b03e eaff be3e 6f0e ff3e 2843 673f
00000070: ed08 2b3f fbf8 d13e 975e 0f3f 9497 b93e
00000080: d9a6 443e ed96 813f 16ad b93e 8ba3 9b3e
00000090: 63c2 4e3f b9ee 933e 3eb0 2e3f d087 3f3b
000000a0: b4ff e43d cc4e 273f e5e9 783f 49ab a63e
000000b0: dfa0 3d3f 78eb 143f 6c9e 223f 1412 c03e
000000c0: b52e 403f 0cdc 0b3f 2b42 c13e 9fb0 9d3e
000000d0: 10a1 633e f4b0 383f 2266 9b3e 6717 303f
000000e0: fc86 673f 79cc 743f 2156 be3e c303 2b3f
000000f0: 9f41 213f a09a 503f d92e 823e 6e45 503f

conv2.bn.bias f4 [64]
-0.09875161 -0.10251379 -0.07056787 -0.124031946 -0.10495262 -0.11102752 -0.07262516 -0.1189966
-0.11388675 -0.08583408 -0.121959805 -0.08127328 -0.14691198 -0.07605826 -0.10918613 -0.10904724
-0.13334584 -0.123685926 -0.13673185 -0.092374444 -0.08591675 -0.18255903 -0.12837504 -0.08157814
-0.09755862 -0.102450095 -0.08375862 -0.12174284 -0.12663914 -0.16229804 -0.1612719 -0.12490236
-0.09255088 -0.030036593 -0.117826305 -0.10904273 -0.11873755 -0.13274433 -0.098760195 -0.014567404
-0.10791556 -0.21174553 -0.20571734 -0.08921012 -0.17540985 -0.079781555 -0.20061822 -0.13013893
-0.19521087 -0.12523504 -0.12630565 -0.043893144 -0.15358768 -0.111890435 -0.089898385 -0.15677182
-0.19057359 -0.04801323 -0.12682551 -0.14048953 -0.14077568 -0.11712342 -0.06157296 -0.106322214
00000000: 493e cabd c0f2 d1bd e385 90bd 7604 febd
00000010: 66f1 d6bd 6562 e3bd 80bc 94bd 7db4 f3bd
00000020: 753d e9bd c7c9 afbd 10c6 f9bd 9b72 a6bd
00000030: 1870 16be 6fc4 9bbd fa9c dfbd 2954 dfbd
00000040: d08b 08be 0c4f fdbd 6f03 0cbe d02e bdbd
00000050: 1ff5 afbd c1f0 3abe bf74 03be 7112 a7bd
00000060: d0cc c7bd 5bd1 d1bd a489 abbd 4f54 f9bd
00000070: b1ad 01be 7531 26be 7624 25be cfcc ffbd
00000080: 518b bdbd 4d0f f6bc eb4e f1bd cb51 dfbd
00000090: ac2c f3bd 21ee 07be c942 cabd 1fac 6ebc
000000a0: d502 ddbd d2d3 58be 91a7 52be ccb3 b6bd
000000b0: a49e 33be 8364 a3bd dd6e 4dbe 2443 05be
000000c0: 5ce5 47be 9d3d 00be 4556 01be 4cc9 33bd
000000d0: 1746 1dbe d026 e5bd a51c b8bd cb88 20be
000000e0: b925 43be 85a9 44bd 8cde 01be 7ddc 0fbe
000000f0: 8027 10be 67de efbd ee33 7cbd 76bf d9bd

conv2.bn.running_mean f4 [64]
0.59746724 -0.13273716 -0.2813245 -0.512718 0.17369421 0.2677979 0.17754097 0.2949778
-0.064063296 -0.008243305 -0.14164616 0.9078179 0.40614313 -0.08328324 -0.8798844 -0.06879615
0.45472875 0.06417681 0.5248598 -0.35581458 0.046521176 0.2562898 -0.5901394 -0.44567004
-0.47406143 0.11327897 -0.27092975 0.1821046 -1.1768425 -0.2045399 -0.01296435 0.53938866
0.23996171 -0.1766955 0.48816636 0.17009547 -1.0808079 0.19669087 -0.101709954 -0.12412383
0.015782388 -0.1860679 0.21500528 0.55917746 0.3282534 0.44651407 0.35600972 0.40048507
0.43586072 -0.5092424 0.1736759 -0.00020469817 0.44247335 -0.985222 0.050857533 0.5597524
0.1567898 -0.66908014 0.77080196 0.47013387 0.20641173 0.049513366 -0.71092945 0.8789158
00000000: 9df3 183f 40ec 07be c409 90be 7d41 03bf
00000010: e5dc 313e ce1c 893e 4dcd 353e 5507 973e
00000020: 9e33 83bd ed0e 07bc b10b 11be c166 683f
00000030: fef1 cf3e 6790 aabd 1b40 61bf ffe4 8cbd
00000040: 35d2 e83e 226f 833d 365d 063f 542d b6be
00000050: fd8c 3e3d 6b38 833e 6013 17bf dd2e e4be
00000060: 2eb8 f2be cefe e73d 4eb7 8abe a179 3a3e
00000070: c6a2 96bf e872 51be 6d68 54bc 6015 0a3f
00000080: 86b8 753e aaef 34be f1f0 f93e 822d 2e3e
00000090: ea57 8abf 5569 493e 4f4d d0bd a234 febd
000000a0: 114a 813c 9588 3ebe 582a 5c3e 4126 0f3f
000000b0: d410 a83e 7e9d e43e e846 b63e 610c cd3e
000000c0: 2329 df3e b65d 02bf 18d8 313e 3fa4 56b9
000000d0: de8b e23e 8237 7cbf fd4f 503d ef4b 0f3f
000000e0: 818d 203e d648 2bbf 4753 453f 63b5 f03e
000000f0: 995d 533e 87ce 4a3d 79ff 35bf a000 613f

conv2.bn.running_var f4 [64]
0.3902196 0.30657738 0.25004357 0.26398662 0.50795686 0.19429344 0.39626142 0.37235087
0.26173067 0.29357803 0.15799621 0.35872287 0.21282825 0.42416006 0.32601067 0.16210265
0.29350626 0.5084208 0.3396743 0.1750742 0.41364157 0.25811163 0.24108817 0.22304276
0.20372562 0.19851424 0.24385539 0.19221444 0.42999458 0.14891829 0.24752325 0.26330015
0.37444746 0.10607167 0.19252437 0.21262065 0.59375715 0.21823058 0.1416084 0.08241005
0.23880833 0.17122687 0.21273437 0.29960057 0.47514173 0.52026033 0.3186997 0.18026803
0.17368406 0.29431742 0.22477049 0.42268983 0.45738074 0.42227918 0.37105125 0.22475182
0.44068053 0.2723942 0.38951674 0.3212151 0.09004783 0.1754263 0.20292127 0.32211053
00000000: ddca c73e b6f7 9c3e b605 803e 4129 873e
00000010: 7609 023f dcf4 463e c7e2 ca3e c6a4 be3e
00000020: 9001 863e dc4f 963e c2c9 213e 86aa b73e
00000030: a6ef 593e 822b d93e dfea a63e 3dfe 253e
00000040: 7446 963e de27 023f cae9 ad3e a746 333e
00000050: d4c8 d33e 3527 843e d1df 763e 5265 643e
00000060: 739d 503e 5147 4b3e 3ab5 793e ddd3 443e
00000070: 4028 dc3e 097e 183e bc76 7d3e 47cf 863e
00000080: 94b7 bf3e 1b3c d93d 1c25 453e 3ab9 593e
00000090: 7800 183f d677 5f3e cb01 113e 9ac6 a83d
000000a0: 2c8a 743e 1956 2f3e 0ad7 593e 3f65 993e
000000b0: c745 f33e c82f 053f 9b2c a33e 2f98 383e
000000c0: 3cda 313e c6b0 963e 3c2a 663e cd6a d83e
000000d0: cf2d ea3e fa34 d83e 6efa bd3e 5725 663e
000000e0: e1a0 e13e 4177 8b3e bd6e c73e 4e76 a43e
000000f0: ff6a b83d f4a2 333e 98ca 4f3e aceb a43e

conv3.conv.weight f4 [128, 64, 3, 3]
0.050040092 0.005441542 -0.016590217 -0.0067222477 0.01418776 -0.012088639 -0.016676707 -0.044903997
-0.058267962 -0.093524896 -0.13657947 -0.12184438 -0.056273777 -0.002583894 -0.09147588 0.045563746
0.043409664 -0.03942125 0.058663603 -0.028591314 -0.03536366 0.004101014 0.040715896 0.012100404
-0.016006624 0.026224658 -0.046485398 0.0677552 0.06969193 0.030629372 -0.028221896 -0.0057283645
0.016932966 -0.07284039 -0.090620205 -0.01676863 0.03745898 0.025033556 -0.06722056 -0.001203751
-0.06682599 -0.108120486 0.04241241 0.010462713 -0.05864457 0.05101275 0.037555758 -0.017017381
0.09548971 0.07593027 0.13797455 -0.033364523 -0.026223717 0.062406432 -0.0009907625 0.07153169
-0.024322083 0.005286533 0.023418117 0.014972543 0.006549358 -0.024456551 -0.009175046 0.0032478087
-0.104374364 -0.07704907 0.035569772 -0.0072710146 0.011700324 -0.025235843 -0.023307389 -0.014456914
0.010306239 -0.011216358 0.0073488485 0.11064941 0.050380353 0.036744166 0.06683184 -0.0414857
-0.112354 0.032889962 -0.0025511996 0.037643626 -0.020049023 -0.053041674 -0.06829796 0.11610734
0.087251574 0.11951829 -0.107687704 -0.018471763 0.0058869794 -0.055721816 -0.033312898 0.022808228
0.018967733 0.03574227 0.018137474 0.12280706 0.017769452 0.030775007 0.05516392 0.03811275
0.032010905 -0.051956218 -0.0152516775 -0.06755905 0.048046973 0.044404343 0.0015689277 0.015627552
-0.03857199 -0.07959357 -0.01476912 -0.045287002 -0.08378149 0.09003908 0.019412093 0.03817667
0.091620155 0.050201427 0.06465834 0.040880628 0.054027807 0.07928206 0.016718209 0.064501226
0.008558337 -0.034361392 0.057438985 0.042682227 -0.032434348 -0.052770272 -0.04781775 0.03709035
0.017176999 0.074705444 -0.0041113817 -0.02264223 -0.029046996 0.0002953725 -0.0847254 -0.14353101
0.043371707 0.03715767 -0.007199698 0.032411266 0.005740084 0.05463744 -0.005579254 0.0106627345
-0.01047839 0.021529892 -0.07663754 -0.090793304 0.020905185 -0.028595548 -0.007945792 0.050393872
0.025360296 0.03838124 0.07282393 0.03310691 -0.0005268402 0.06299556 0.050278436 -0.06324821
0.009441695 0.016341664 0.019312236 0.0518028 0.03372237 -0.008786054 -0.009586733 0.08597284
0.041301124 -0.17950282 -0.09756195 0.007815919 0.050197072 0.03211827 -0.057955466 -0.06836735
-0.055041075 -0.0783066 0.022315465 0.029445546 -0.022432046 0.019264163 0.0447607 -0.022625387
-0.0058395667 0.03559057 -0.007748197 0.027553976 0.010574098 -0.0030228272 -0.08033062 -0.04912402
0.044203382 -0.09210007 -0.022346046 0.0366269 0.018121481 0.086116664 0.11859488 0.028524324
-0.0046821153 0.0117096165 -0.034970444 0.037186038 0.090519615 0.0067758188 0.045044467 0.0652375
-0.04248248 -0.0636454 -0.07235822 0.020078272 -0.00074549875 -0.053531975 -0.034458067 -0.09850865
-0.030721318 0.022100985 0.038979515 0.016422193 -0.060904507 0.006836342 -0.124932565 -0.100996695
-0.13422695 -0.15288863 -0.04071187 0.038645003 0.12961994 -0.024256505 0.015079465 0.061329253
-0.014646067 0.030074928 0.010313355 0.033600252 0.021312598 0.010874251 0.014301174 0.032725252
1.3137092e-05 -0.05430472 -0.0036400764 0.0057179686 0.020953141 0.03852208 0.0071346425 -0.014047842
00000000: d7f6 4c3d f64e b23b 35e8 87bc 4d46 dcbb
00000010: c773 683c 6d0f 46bc 979d 88bc 41ed 37bd
00000020: 63aa 6ebd fb89 bfbd 7ddb 0bbe 8c89 f9bd
00000030: 557f 66bd 8c56 29bb b557 bbbd 0da1 3a3d
00000040: 55ce 313d 2d78 21bd 3f49 703d 5538 eabc
00000050: 7cd9 10bd cd61 863b b6c5 263d c640 463c
00000060: 5320 83bc 18d5 d63c 7967 3ebd 3dc3 8a3d
00000070: a5ba 8e3d 73ea fa3c 9b31 e7bc 01b5 bbbb
00000080: 01b7 8a3c 582d 95bd 1697 b9bd 5e5e 89bc
00000090: 966e 193d 2c13 cd3c efaa 89bd 2ec7 9dba
000000a0: 11dc 88bd 466e ddbd a3b8 2d3d cd6b 2b3c
000000b0: 4a35 70bd bff2 503d 11d4 193d 0968 8bbc
000000c0: 1c90 c33d 5481 9b3d 3349 0d3e 3da9 08bd
000000d0: 1fd3 d6bc e39d 7f3d 79dc 81ba 357f 923d
000000e0: 1b3f c7bc a73a ad3b 5ad7 bf3c 664f 753c
000000f0: ff9b d63b 1b59 c8bc ef52 16bc 30d9 543b
00000100: 3ac2 d5bd e7cb 9dbd 9cb1 113d b141 eebb
00000110: b7b2 3f3c 66bb cebc 23ef bebc b1dc 6cbc
00000120: 80db 283c d1c4 37bc 9cce f03b 289c e23d
00000130: a15b 4e3d 0d81 163d 22df 883d e9ec 29bd
00000140: db19 e6bd a0b7 063d 0732 27bb 3430 1a3d
00000150: d93d a4bc 3a42 59bd cddf 8bbd afc9 ed3d
00000160: f4b0 b23d 01c6 f43d 5f8b dcbd 1852 97bc
00000170: 90e7 c03b 8f3c 64bd 1b73 08bd 52d8 ba3c
00000180: 3862 9b3c 7d66 123d 0a95 943c 4582 fb3d
00000190: 3e91 913c de1b fc3c 90f3 613d 1d1c 1c3d
000001a0: de1d 033d 0bd0 54bd 2ce2 79bc 665c 8abd
000001b0: e7cc 443d 54e1 353d 7aa4 cd3a 5a05 803c
000001c0: aafd 1dbd f401 a3bd 2efa 71bc dd7e 39bd
000001d0: a195 abbd 6966 b83d 1c06 9f3c 245f 1c3d
000001e0: 59a3 bb3d 03a0 4d3d 976b 843d 7272 273d
000001f0: 434c 5d3d a25e a23d a0f4 883c 3819 843d
00000200: 4438 0c3c 88be 0cbd 2445 6b3d 8fd3 2e3d
00000210: e1d9 04bd a425 58bd 8cdc 43bd 0dec 173d
00000220: c7b6 8c3c 2bff 983d c5b8 86bb 337c b9bc
00000230: f7f3 edbc 3adc 9a39 8384 adbd cbf9 12be
00000240: 88a6 313d a432 183d 72eb ebbb adc1 043d
00000250: 5117 bc3b 82cb 5f3d 2dd2 b6bb c0b2 2e3c
00000260: 8ead 2bbc 755f b03c 24f4 9cbd d7f1 b9bd
00000270: 5a41 ab3c 3641 eabc 112f 02bc ce69 4e3d
00000280: 65c0 cf3c a635 1d3d b624 953d 1c9b 073d
00000290: a61b 0aba d103 813d c3f0 4d3d 4788 81bd
000002a0: 57b1 1a3c f4de 853c b234 9e3c 2c2f 543d
000002b0: 7820 0a3d 62f3 0fbc ac11 1dbc 8712 b03d
000002c0: 5e2b 293d 96cf 37be 8fce c7bd 570e 003c
000002d0: 729b 4d3d 728e 033d b662 6dbd 2e04 8cbd
000002e0: c072 61bd 365f a0bd ecce b63c c937 f13c
000002f0: 69c3 b7bc e1cf 9d3c ff56 373d e058 b9bc
00000300: d659 bfbb 6bc7 113d 96e4 fdbb e0b8 e13c
00000310: fb3e 2d3c a01a 46bb 6184 a4bd 4536 49bd
00000320: 9b0e 353d f69e bcbd 0e0f b7bc 1706 163d
00000330: 8073 943c ef5d b03d dfe1 f23d d8ab e93c
00000340: 6e6c 99bb b1d9 3f3c 2b3d 0fbd 6350 183d
00000350: 5962 b93d b007 de3b 8c80 383d 3d9b 853d
00000360: 1c02 2ebd 8558 82bd 8c30 94bd 307b a43c
00000370: 936d 43ba 5844 5bbd e723 0dbd e7be c9bd
00000380: 46ab fbbc 200d b53c fca8 1f3d d687 863c
00000390: 0177 79bd 6503 e03b a5dc ffbd 5bd7 cebd
000003a0: ca72 09be d68e 1cbe 7dc1 26bd 394a 1e3d
000003b0: 17bb 043e 94b5 c6bc dc0f 773c 6234 7b3d
000003c0: 0ff6 6fbc b25f f63c 59f9 283c 6ba0 093d
000003d0: c297 ae3c ea29 323c 794f 6a3c ea0a 063d
000003e0: 6167 5c37 a06e 5ebd 598e 6ebb cc5d bb3b
000003f0: eca5 ab3c 54c9 1d3d b8c9 e93b eb28 66bc

conv3.conv.bias f4 [128]
-3.775162e-05 -3.097692e-05 1.2347035e-05 0.0003755852 0.00010037307 -1.8549545e-05 -8.0270474e-05 3.850271e-05
-1.7357243e-05 -0.0008539777 3.6713627e-05 1.0148983e-05 1.2826657e-05 -5.7763868e-05 -9.836006e-06 1.2613634e-05
0.00023091718 -6.9370085e-06 1.1617896e-05 -3.5614277e-05 9.093936e-05 0.00014899812 -4.7455407e-05 5.562338e-05
-0.00010690366 7.817295e-05 4.5087658e-05 -0.00013359959 -4.882163e-05 -3.49262e-05 4.3652644e-06 -2.8463237e-05
1.5725687e-05 -6.3797e-05 0.00014741863 -8.069661e-05 -0.00012905273 2.5623727e-05 -3.2225253e-05 8.230149e-05
4.2980387e-06 -7.03997e-05 -0.000563733 0.000120480545 0.0001635569 -9.147146e-05 5.5980898e-05 -3.1537868e-07
-8.949532e-05 3.8239028e-05 3.612099e-05 -0.00011964016 -3.7798494e-05 0.000150907 0.00012135654 -7.915042e-07
3.0622966e-06 -2.8971068e-05 -1.774278e-05 5.719734e-05 -1.4737945e-05 0.000316877 0.00025505776 3.6220143e-05
0.00024392176 -0.000103919425 -8.09485e-05 -7.454552e-05 6.8307663e-06 0.0001640917 -6.4778214e-05 2.548719e-05
4.0412266e-05 -5.128246e-05 -1.1265265e-05 -7.113117e-05 5.3998315e-06 -0.00032140073 -7.756173e-06 2.684636e-31
-0.00015429653 0.00020256509 0.0001874639 -0.0004806668 -0.00042199632 2.9821309e-05 -5.9820835e-05 0.00034886808
-0.00011401239 -0.00021882345 4.7194226e-05 -7.3221813e-06 -8.884879e-06 0.00017517393 -1.5656361e-21 -3.5139954e-05
4.5719993e-05 -6.3077914e-06 3.4050413e-06 -4.3186997e-06 0.00018866536 2.975615e-05 -0.00011248961 -0.00025045723
1.01956175e-05 -4.1641408e-05 -1.9013136e-05 -0.00017761315 -0.00014441437 0.00010154503 0.0003237974 -2.5816269e-06
8.1066035e-05 -0.00013554218 3.542183e-05 -0.00011080993 0.00013261253 -9.643022e-05 -9.343399e-05 -1.6612194e-05
-5.6160945e-07 -2.8415663e-05 -0.000116815165 -0.00013234606 -0.00011711985 -0.00010079975 -0.00016328791 0.00014640714
00000000: 7e57 1eb8 37ed 01b8 1d26 4f37 31ea c439
00000010: 627f d238 d89a 9bb7 e256 a8b8 f87d 2138
00000020: 659a 91b7 79dd 5fba f5fc 1938 8d45 2a37
00000030: 1332 5737 7b47 72b8 5305 25b7 259f 5337
00000040: 5c22 7239 73c4 e8b6 7cea 4237 8a60 15b8
00000050: b2b6 be38 613c 1c39 db0a 47b8 264d 6938
00000060: 7731 e0b8 c8f0 a338 811c 3d38 de16 0cb9
00000070: d3c5 4cb8 b97d 12b8 5679 9236 56c4 eeb7
00000080: a8ea 8337 c1ca 85b8 6394 1a39 aa3b a9b8
00000090: 5452 07b9 89f2 d637 9a29 07b8 4799 ac38
000000a0: df37 9036 8da3 93b8 7bc7 13ba 80aa fc38
000000b0: 7980 2b39 5ed4 bfb8 08cd 6a38 5151 a9b4
000000c0: 6faf bbb8 d862 2038 9e80 1738 52e7 fab8
000000d0: d389 1eb8 ca3c 1e39 cc80 fe38 c177 54b5
000000e0: db81 4d36 e506 f3b7 54d6 94b7 2de7 6f38
000000f0: fe42 77b7 8322 a639 46b9 8539 15eb 1738
00000100: 40c5 7f39 51ef d9b8 e5c2 a9b8 5255 9cb8
00000110: d633 e536 0810 2c39 8ad9 87b8 53cd d537
00000120: 5780 2938 1f18 57b8 f2ff 3cb7 422c 95b8
00000130: 3330 b536 ad81 a8b9 8220 02b7 2b3e ae0c
00000140: a9ca 21b9 a767 5439 f591 4439 0102 fcb9
00000150: 633f ddb9 c628 fa37 22e8 7ab8 48e8 b639
00000160: f019 efb8 f973 65b9 6af2 4538 0fb1 f5b6
00000170: 4410 15b7 e5ae 3739 9d97 ec9c 3d63 13b8
00000180: 78c3 3f38 84a7 d3b6 2a82 6436 59e9 90b6
00000190: 79d4 4539 d89c f937 66e8 ebb8 cd4f 83b9
000001a0: d80d 2b37 1fa8 2eb8 667e 9fb7 ab3d 3ab9
000001b0: f06d 17b9 93f4 d438 5ac3 a939 0340 2db6
000001c0: ff01 aa38 5420 0eb9 e691 1438 a162 e8b8
000001d0: e80d 0b39 953a cab8 fef1 c3b8 6a5a 8bb7
000001e0: 82c1 16b5 2c5e eeb7 aafa f4b8 60c6 0ab9
000001f0: 3e9e f5b8 7464 d3b8 4438 2bb9 de84 1939

conv3.bn.weight f4 [128]
1.0101025 0.4585981 0.8726542 0.7824063 0.6674244 0.25846067 0.20638062 0.37512356
0.16810687 0.87434876 0.416108 0.25579366 0.1900234 0.97455275 0.5672984 0.34703726
0.4614156 0.3927724 0.21856825 0.12915538 0.4829917 0.28540635 0.08493778 0.6432192
0.87884605 0.54740036 0.48255396 0.6245503 0.8394871 0.66399497 0.9602645 0.23499079
0.37193048 0.49815995 0.5710321 0.73535436 0.75557935 0.8007561 0.30733472 0.31767476
0.064657114 0.24136198 0.821802 0.8959121 0.7232214 0.6471746 0.9000766 0.42255402
0.9655572 0.69523454 0.83810186 0.898343 0.1028403 0.19070266 0.23910579 0.08266437
0.04414729 0.20187938 0.16634007 0.9906031 0.29618198 0.77935344 0.9384491 0.5763636
0.48852187 0.86973387 0.6453123 0.31420115 0.3078771 0.91490895 0.44412714 0.38422647
0.21726127 0.31104904 0.1234316 0.4581733 0.13271399 0.86731493 0.26336566 -0.00032159427
0.30310008 0.80723566 0.8741798 0.62663895 0.8375029 0.6016856 0.3763703 0.9499915
1.0027589 0.6870952 0.73069143 0.105180435 0.0682935 0.4043953 0.00577922 0.35943642
0.31252015 0.07749054 0.5103575 0.5172347 0.84543014 0.36409983 0.4833056 0.6056752
0.6262928 0.12743115 0.7111171 0.72886246 1.0179198 0.4290867 0.71557647 0.06703287
0.7539571 0.6081728 0.09284977 0.52833116 0.9657019 0.5931243 0.60428786 0.21672118
0.052693486 0.50879234 0.4404848 0.7781146 0.88599825 0.81149364 0.85285187 0.73207706
00000000: 0a4b 813f 5fcd ea3e 4466 5f3f c74b 483f
00000010: 53dc 2a3f f554 843e 7155 533e 3210 c03e
00000020: 3524 2c3e 52d5 5f3f 1c0c d53e 63f7 823e
00000030: 7f95 423e 4a7c 793f 783a 113f deae b13e
00000040: aa3e ec3e 7719 c93e 5bd0 5f3e 4f41 043e
00000050: b04a f73e c820 923e dcf3 ad3d 03aa 243f
00000060: 0efc 603f 6e22 0c3f 5011 f73e 87e2 1f3f
00000070: a0e8 563f 93fb 293f e5d3 753f 6da1 703e
00000080: ac6d be3e d20e ff3e 292f 123f 2f40 3c3f
00000090: a66d 413f 5afe 4c3f fa5a 9d3e 44a6 a23e
000000a0: f36a 843d 9827 773e 9e61 523f 7f5a 653f
000000b0: 0a25 393f 3cad 253f 6c6b 663f 0059 d83e
000000c0: c22e 773f e4fa 313f d88d 563f cff9 653f
000000d0: ef9d d23d 8f47 433e 26d8 743e f04b a93d
000000e0: cad3 343d 78b9 4e3e 0d55 2a3e 2a98 7d3f
000000f0: 2aa5 973e b583 473f 333e 703f 918c 133f
00000100: 8a1f fa3e e1a6 5e3f 3033 253f f9de a03e
00000110: 11a2 9d3e 7937 6a3f a264 e33e 55b9 c43e
00000120: bd79 5e3e d241 9f3e b5c9 fc3d b195 ea3e
00000130: 2de6 073e 5a08 5e3f ddd7 863e a79b a8b9
00000140: ef2f 9b3e ffa6 4e3f 3fca 5f3f 696b 203f
00000150: 9766 563f 1108 1a3f 9cb3 c03e a532 733f
00000160: 675a 803f 79e5 2f3f 980e 3b3f d768 d73d
00000170: 76dd 8b3d e70c cf3e 9c5f bd3b 0d08 b83e
00000180: a402 a03e 5cb3 9e3d caa6 023f 7e69 043f
00000190: 1c6e 583f 4b6b ba3e d573 f73e 880d 1b3f
000001a0: ba54 203f 507d 023e c50b 363f bb96 3a3f
000001b0: 324b 823f 40b1 db3e 0530 373f 8848 893d
000001c0: 5503 413f 36b1 1b3f 0528 be3d b640 073f
000001d0: 3d38 773f fed6 173f 9cb2 1a3f 28ec 5d3e
000001e0: 20d5 573d 3740 023f 3987 e13e 8532 473f
000001f0: c8d0 623f 0cbe 4f3f 8054 5a3f 6769 3b3f

conv3.bn.bias f4 [128]
-0.15702087 -0.078057565 -0.1801375 -0.24212973 -0.13193384 -0.081799 -0.11625823 -0.16436803
-0.10767454 -0.14763494 -0.11345365 -0.16107611 -0.092060216 -0.1195753 -0.2318712 -0.04926917
-0.043166276 -0.09751153 -0.13097316 -0.10202946 -0.14298508 -0.12422178 -0.09817518 -0.1813937
-0.18675606 -0.15424156 -0.23634195 -0.20983368 -0.16291264 -0.065573424 -0.08752357 -0.08793746
-0.1479701 -0.114810176 -0.100063205 -0.14204651 -0.15394947 -0.1489187 -0.14184618 -0.10772451
-0.08000988 -0.14799413 -0.15182824 -0.13870203 -0.124481134 -0.105979696 -0.13142312 -0.09515979
-0.20217235 -0.17788884 -0.18121277 -0.18835056 -0.1155957 -0.11552745 -0.13303992 -0.08226394
-0.05457003 -0.047761314 -0.14761372 -0.12419761 -0.13324398 -0.23950715 -0.13620651 -0.2552654
-0.14644797 -0.20481288 -0.19009696 -0.102154344 -0.16501153 -0.17432913 -0.13777699 -0.12812935
-0.16155727 -0.14233541 -0.040848553 -0.114595 -0.10362049 -0.19409187 -0.12772086 -0.007788124
-0.14920154 -0.1878213 -0.07731025 -0.17135875 -0.048218083 -0.16423406 -0.16961351 -0.18691465
-0.10798388 -0.14610346 -0.13783537 -0.0893868 -0.07191594 -0.20546861 -0.032066897 -0.019636868
-0.18718825 -0.075448364 -0.11423146 -0.12016203 -0.09134781 -0.1608224 -0.08588971 -0.040010776
-0.04687906 -0.123830795 -0.08474201 -0.14666334 -0.0962778 -0.12164602 -0.13571419 -0.1014045
-0.088705525 -0.12351208 -0.11248081 -0.14919643 -0.06375077 -0.03588745 -0.0962201 -0.1061556
-0.058020357 -0.15626523 -0.050419223 -0.16384266 -0.18199758 -0.16817677 -0.107019335 -0.1535827
00000000: 14ca 20be a5dc 9fbd f775 38be dbf0 77be
00000010: aa19 07be 3c86 a7bd cb18 eebd 1850 28be
00000020: 7884 dcbd 9d2d 17be 635a e8bd 23f1 24be
00000030: 118a bcbd e5e3 f4bd a56f 6dbe 78ce 49bd
00000040: 1fcf 30bd 20b4 c7bd d41d 06be d2f4 d0bd
00000050: ae6a 12be fd67 febd 1210 c9bd 45bf 39be
00000060: fb3c 3fbe 80f1 1dbe a003 72be a4de 56be
00000070: 92d2 26be 5c4b 86bd 8f3f b3bd 8e18 b4bd
00000080: 7985 17be 9921 ebbd f0ed ccbd a474 11be
00000090: eea4 1dbe 257e 18be 2040 11be ab9e dcbd
000000a0: 38dc a3bd c68b 17be dd78 1bbe e807 0ebe
000000b0: f7ef febd e20b d9bd c893 06be 23e3 c2bd
000000c0: 4506 4fbe 7e28 36be d78f 39be f8de 40be
000000d0: 70bd ecbd a899 ecbd 9e3b 08be ff79 a8bd
000000e0: d384 5fbd 5ea1 43bd 0d28 17be 515b febd
000000f0: 1c71 08be 5d41 75be b879 0bbe 26b2 82be
00000100: 75f6 15be 78ba 51be c7a8 42be 4c36 d1bd
00000110: c8f8 28be 5683 32be 6915 0dbe 5734 03be
00000120: 456f 25be 60c0 11be d050 27bd c9b0 eabd
00000130: fb36 d4bd 05c0 46be 42c9 02be 8533 ffbb
00000140: 4ac8 18be 3a54 40be d654 9ebd ab78 2fbe
00000150: 5380 45bd f92c 28be 2aaf 2dbe 8e66 3fbe
00000160: a726 ddbd 259c 15be b724 0dbe 6d10 b7bd
00000170: aa48 93bd 5d66 52be 9458 03bd 7fdd a0bc
00000180: 47ae 3fbe ac84 9abd 2ff2 e9bd 8317 f6bd
00000190: 9014 bbbd a1ae 24be f2e6 afbd 57e2 23bd
000001a0: 4204 40bd 009b fdbd 388d adbd ea2e 16be
000001b0: 4c2d c5bd 8c21 f9bd a9f8 0abe 2aad cfbd
000001c0: 3eab b5bd e7f3 fcbd 575c e6bd f3c6 18be
000001d0: c48f 82bd b8fe 12bd 0b0f c5bd 1b68 d9bd
000001e0: c1a6 6dbd fe03 20be 6384 4ebd 5fc6 27be
000001f0: 935d 3abe 8836 2cbe f42c dbbd c944 1dbe

conv3.bn.running_mean f4 [128]
0.3262932 -0.38453677 -0.3056873 0.29485106 -0.5418685 -0.18106718 -0.39684883 0.10606997
-0.215566 0.2153405 -0.039082766 0.13605568 -0.9188039 0.18501358 0.7002374 -0.873025
-1.4637921 -0.3534059 -0.8995959 0.3277813 -0.6224693 -0.12449946 1.6486892 0.10364073
0.096865125 0.8211403 -0.17334755 0.54916036 1.035157 0.7064573 -0.3880037 0.21402617
-1.4950601 -1.0992175 -0.60761195 -1.1616044 -0.54893047 -0.028271519 -0.75501645 -0.1832591
-0.34626618 0.100676425 0.14091177 0.72244394 0.12084713 0.13820289 -0.4520413 -1.0593191
-0.019577647 0.13499446 0.48814058 0.15272948 -0.034035757 -1.6143436 0.02148756 0.109224156
0.49400064 -1.7075431 -0.012275538 -0.3959683 -0.80126053 -0.21844678 1.1500905 -0.083333984
-1.5624055 0.90617687 0.6260742 -1.0156322 -0.3716531 -0.14506084 -0.54129225 -0.19672498
0.21277025 0.006926028 0.30972788 -0.0012570112 0.095534 0.47733945 0.77782905 -0.2019884
-0.6832494 0.37789008 -0.4833159 -0.9156082 1.0285455 -0.24817416 0.9578771 -0.2702129
0.07777878 -0.95604473 -0.30465007 0.32574096 -0.16959524 -0.36010408 -0.2721815 -0.17258976
0.40180102 -0.68725914 0.18625417 0.18566458 -0.010727016 0.36312053 -1.9036729 -1.8641518
-0.65138084 0.34280533 -0.8755851 0.06021438 0.33701995 0.40298054 -0.49589634 0.5822022
-0.53282434 -0.25752622 0.43639207 0.8940213 -0.060585443 -1.756435 -0.855381 1.021034
0.5308022 0.30789596 -1.5599759 0.5584524 -0.19233789 0.28281975 0.14312573 0.16069624
00000000: e70f a73e 01e2 c4be 0c83 9cbe b8f6 963e
00000010: e5b7 0abf ad69 39be c52f cbbe 363b d93d
00000020: 55bd 5cbe 3882 5c3e 4015 20bd 2e52 0b3e
00000030: bb36 6bbf 3374 3d3e c242 333f 917e 5fbf
00000040: 8a5d bbbf 9ef1 b4be eb4b 66bf f3d2 a73e
00000050: 265a 1fbf 93f9 febd 3f08 d33f 9741 d43d
00000060: 3961 c63d 4036 523f 0582 31be c695 0c3f
00000070: 0680 843f 63da 343f 6ca8 c6be ad29 5b3e
00000080: 215e bfbf 29b3 8cbf 758c 1bbf 74af 94bf
00000090: b586 0cbf ac99 e7bc c248 41bf 46a8 3bbe
000000a0: cd49 b1be 712f ce3d 2d4b 103e 16f2 383f
000000b0: b37e f73d 0f85 0d3e f571 e7be c597 87bf
000000c0: 4d61 a0bc fd3b 0a3e 90ed f93e 1e65 1c3e
000000d0: 1469 0bbd d0a2 cebf ae06 b03c eab0 df3d
000000e0: a7ed fc3e c690 dabf 571f 49bc 5bbc cabe
000000f0: 691f 4dbf 83b0 5fbe 2a36 933f 02ab aabd
00000100: e7fc c7bf 35fb 673f 6646 203f 3c00 82bf
00000110: 5149 bebe d48a 14be 2192 0abf 4672 49be
00000120: 72e0 593e bcf3 e23b a794 9e3e 4cc2 a4ba
00000130: 54a7 c33d d665 f43e ce1f 473f 0cd6 4ebe
00000140: 6fe9 2ebf cf7a c13e 2f75 f7be 4d65 6abf
00000150: 61a7 833f 5e21 7ebe 6f37 753f 5859 8abe
00000160: 7b4a 9f3d 59bf 74bf 18fb 9bbe 85c7 a63e
00000170: 60aa 2dbe 905f b8be 605b 8bbe 5fbb 30be
00000180: ddb8 cd3e 37f0 2fbf 6ab9 3e3e db1e 3e3e
00000190: 5ec0 2fbc efea b93e 8eab f3bf 879c eebf
000001a0: e5c0 26bf 2e84 af3e 5826 60bf 5ba3 763d
000001b0: e18d ac3e 7753 ce3e 20e6 fdbe 340b 153f
000001c0: 2d67 08bf 7ada 83be c86e df3e 94de 643f
000001d0: 7128 78bd ddd2 e0bf 40fa 5abf 3eb1 823f
000001e0: a7e2 073f 8aa4 9d3e 4aad c7bf bdf6 0e3f
000001f0: 39f4 44be c0cd 903e 8d8f 123e 8e8d 243e

conv3.bn.running_var f4 [128]
0.57684785 0.47870755 0.49055624 0.39200237 0.73379445 0.7218722 0.440317 0.6580845
0.47815576 0.75087625 0.47735995 0.45336628 0.50923663 0.49004444 0.78970265 0.64736104
1.3554797 0.5201035 0.6502584 0.5392485 0.51099384 0.442719 0.7692404 0.33067366
0.420624 0.5344626 0.39623857 0.8457382 0.688208 0.84204817 0.63058573 0.46816072
0.87559825 0.77377146 0.6927863 1.1561533 0.5511186 0.46927187 0.4124378 0.72172534
0.45928094 0.49394497 0.45594954 0.70535165 0.7737173 0.558937 0.4666763 0.91472805
0.4599651 0.39719728 0.58704937 0.50728416 0.48807126 0.8405693 0.66766065 0.2852697
0.29594722 1.0262003 0.4683966 0.50697196 0.8381459 0.49927032 0.5740154 0.40256143
0.95865446 0.5945458 0.55022734 0.8706625 0.44295624 0.4194065 0.4455136 0.36900538
0.29025847 0.64265275 0.5001638 0.4270382 0.57934684 0.38946787 0.37374505 0.02338889
0.3392828 0.4150322 0.6737621 0.46810043 0.40877786 0.5444785 0.4818405 0.5348734
0.35901254 0.5717737 0.5938539 0.2693821 0.539339 0.47812846 0.056721214 0.5221481
0.48791116 0.52503294 0.55601066 0.54374516 0.6153773 0.53961045 1.5046816 1.4067135
0.7487336 0.59374756 0.6667648 0.6122956 0.44753817 0.71794736 0.65161896 0.47035304
0.6756405 0.38083282 0.6877135 0.7510094 0.3766914 1.3007461 0.81446034 0.7324234
0.37513208 0.49467325 1.3000585 0.38425526 0.7929081 0.3167087 0.6366583 0.7044951
00000000: 4dac 133f 2819 f53e 302a fb3e 89b4 c83e
00000010: f4d9 3b3f 9ecc 383f 3b71 e13e 3a78 283f
00000020: d5d0 f43e 6d39 403f 8668 f43e a01f e83e
00000030: 555d 023f 1be7 fa3e f429 4a3f 74b9 253f
00000040: 5c80 ad3f 8125 053f 5677 263f 310c 0a3f
00000050: 7ed0 023f 11ac e23e f0ec 443f 0f4e a93e
00000060: 075c d73e 8ad2 083f c8df ca3e 4c82 583f
00000070: 662e 303f 7890 573f 116e 213f c3b2 ef3e
00000080: 3527 603f e315 463f 715a 313f d5fc 933f
00000090: 1c16 0d3f 6744 f03e 0c2b d33e fec2 383f
000000a0: df26 eb3e 5be6 fc3e 3872 e93e ed91 343f
000000b0: 5612 463f 7f16 0f3f 32f0 ee3e 9e2b 6a3f
000000c0: 8c80 eb3e 715d cb3e de48 163f 60dd 013f
000000d0: 7ae4 f93e 8d2f 573f cfeb 2a3f df0e 923e
000000e0: 6586 973e 885a 833f aed1 ef3e eac8 013f
000000f0: bb90 563f 5ca0 ff3e acf2 123f 881c ce3e
00000100: 616a 753f 2734 183f b3db 0c3f bde3 5e3f
00000110: 29cb e23e 73bc d63e 5c1a e43e 46ee bc3e
00000120: c29c 943e e484 243f bc0a 003f c0a4 da3e
00000130: 1350 143f 5568 c73e 835b bf3e 0f9a bf3c
00000140: 7ab6 ad3e 1a7f d43e ac7b 2c3f dcaa ef3e
00000150: 554b d13e f162 0b3f ccb3 f63e 77ed 083f
00000160: 7ed0 b73e c35f 123f cf06 183f 73ec 893e
00000170: 1f12 0a3f 41cd f43e 8154 683d 7fab 053f
00000180: 7ecf f93e 8f68 063f b756 0e3f e232 0b3f
00000190: 5e89 1d3f e923 0a3f 6899 c03f 300f b43f
000001a0: 01ad 3f3f d7ff 173f 19b1 2a3f 68bf 1c3f
000001b0: b923 e53e 66cb 373f 80d0 263f 1dd2 f03e
000001c0: c7f6 2c3f 85fc c23e fe0d 303f 2742 403f
000001d0: b2dd c03e d97e a63f 7980 503f 1a80 3b3f
000001e0: 5011 c03e d045 fd3e 5168 a63f 1bbd c43e
000001f0: 06fc 4a3f a527 a23e 0afc 223f ca59 343f
